tabnet_model/network.pt (torch, 78660 bytes, 112 tensors)

tabnet.initial_bn.weight f4 [8]
00000000: 0000 803f 0000 803f 0000 803f 0000 803f
00000010: 0000 803f 0000 803f 0000 803f 0000 803f
1.0 1.0 1.0 1.0 1.0 1.0 1.0 1.0

tabnet.initial_bn.bias f4 [8]
00000000: 0000 0000 0000 0000 0000 0000 0000 0000
00000010: 0000 0000 0000 0000 0000 0000 0000 0000
0.0 0.0 0.0 0.0 0.0 0.0 0.0 0.0

tabnet.initial_bn.running_mean f4 [8]
00000000: 0000 0000 0000 0000 0000 0000 0000 0000
00000010: 0000 0000 0000 0000 0000 0000 0000 0000
0.0 0.0 0.0 0.0 0.0 0.0 0.0 0.0

tabnet.initial_bn.running_var f4 [8]
00000000: 0000 803f 0000 803f 0000 803f 0000 803f
00000010: 0000 803f 0000 803f 0000 803f 0000 803f
1.0 1.0 1.0 1.0 1.0 1.0 1.0 1.0

tabnet.encoder.initial_bn.weight f4 [8]
00000000: 9062 dc3f cde7 6a40 30ba 8d3f 9a66 983f
00000010: 2e80 5940 03a3 0640 e4f8 2840 b3ac 3640
1.7217579 3.670398 1.1072445 1.1906312 3.3984485 2.1036994 2.640191 2.8542907

tabnet.encoder.initial_bn.bias f4 [8]
00000000: 189e 34bf daf8 4dc0 f06d 1bbf ff04 8b3e
00000010: bfa2 96be 7b0c 0241 8132 42bf 3f54 b4be
-0.7055373 -3.2183137 -0.60714626 0.2715225 -0.2942104 8.128047 -0.7585831 -0.35220525

tabnet.encoder.initial_bn.running_mean f4 [8]
00000000: f8e5 693b 8c3c 783b 0ff9 353b bd04 be3b
00000010: 4e4a 8dbb 9d7b a8ba aa23 6bba 3489 b0bb
0.003569005 0.0037877886 0.0027766859 0.0057989047 -0.0043118363 -0.0012854222 -0.0008969853 -0.0053874496

tabnet.encoder.initial_bn.running_var f4 [8]
00000000: e534 803f 542e 803f 9c17 813f 3dba 833f
00000010: 4e62 7f3f 5e68 7e3f 19db 7f3f 1b4b 7c3f
1.0016142 1.0014138 1.008533 1.029121 0.99759376 0.99378 0.9994369 0.985521

tabnet.encoder.initial_splitter.shared.shared_layers.0.weight f4 [32, 8]
00000000: 610a 4440 fd95 403f a822 4abe 060b 6b3e
00000010: ab50 2740 bb42 0741 bec9 47c0 2dc6 44be
00000020: 2062 853f 26e4 5a40 6fc0 90bf 7055 6bbf
00000030: c503 bb40 e558 353f dec7 b23f 83ad 41c0
00000040: 7f79 d33f 8596 b8c0 3e7a bdbf b2bc 253d
00000050: a9fa 7f3f 0747 2440 ef91 94bf 2959 5440
00000060: ef97 fbbe d8b7 e5c0 9929 35c0 f9e2 2fbf
00000070: b830 4d3f cc57 9bbf 25be 41c0 a6c1 2ebf
00000080: 97e4 76bf 8d5b 68c0 2eac 0b3f 4c8d 60c0
00000090: 8af0 f0bf 13fb d13f 29e6 513f 52eb 27bf
000000a0: 6d92 1040 f2bf a43e 9363 9d3d 60d2 d0c0
000000b0: ee82 c43f 7c62 89c0 203f 7140 cbfa 5c40
000000c0: 85ac 3f3e b1d7 eabf ccbc 1c3f 4f38 0bbf
000000d0: 2ecd 4741 ad87 6bbf 73fd fe3f c23e 47bf
000000e0: 89e0 b2bf b114 98c0 3c3a 37c0 aac0 993e
000000f0: b429 4f40 4be7 7abf 38f5 b1bf 9614 3440
00000100: 7fc1 7a40 d4d4 0640 ff2c bf3d fe29 9e3c
00000110: d4c5 0fc0 e52b 5fc0 88e3 883f 116e d640
00000120: 5fb5 9b40 7b0e 0e3f 7b68 a0bd 8026 85bf
00000130: 35b5 e43f 8534 05c1 1c83 10bf bf4a b73f
00000140: 5fde 9040 bcec d13f 5663 ffbe 555d 7340
00000150: a476 ffbe 3729 54bd ac70 9dbe dea1 bbc0
00000160: dd07 893e 9655 98bf 6db0 643e 338c 8940
00000170: 6565 cdbe 7f7f b6c0 3c0d c940 c65d 6ac0
00000180: 5b8a 8ec0 ae39 8440 8e05 c53f 5037 d6bf
00000190: 7262 e23f 30c2 c23e eb71 ee3e 8f24 9b40
000001a0: 0848 f63f 94f9 a9c0 baf1 8b40 3c9f 5040
000001b0: 97db d33f fec5 12c0 e203 0d3f 6aeb 2740
000001c0: a32a c7bf 63c7 9740 5f25 0bc0 f457 83c0
000001d0: 91b0 2dbf d2aa 41c0 0b7d 83c0 b869 0740
000001e0: 4db3 7440 e25a b4c0 4298 0440 ce21 ffbb
000001f0: 0a55 05be 5038 9d40 99a6 08c0 a3e3 f03f
00000200: 8ba3 d2bf de01 8f40 145f 2ac1 7413 5f40
00000210: 672e b63f a650 febf 4567 1ac0 60cd febf
00000220: 0ece a240 3876 cd3e d367 1940 98d5 c83e
00000230: be3f a8c0 edeb b03e 0bfc bcbf 0078 15c0
00000240: a371 9340 6724 a4bf 038f 96c0 531b ca40
00000250: 6ad4 39c0 f54c 9540 c93a b640 f49a 883f
00000260: 8bfc 5fc0 b79d 8dbe a3f2 95bf 2e95 27c0
00000270: 1253 ea3e 9d17 1dc0 bddf d0c0 f2e5 ecc0
00000280: cc12 933f 7409 a23f 95aa 383f 7a5b 8d3e
00000290: acc1 9ebf b1bf f340 e87c 1ec0 1b89 1bbf
000002a0: 5696 0740 e68d cf40 45cc abbf fde0 c8bf
000002b0: 3caa cfbf 8d26 d640 691a 48bf c578 eebe
000002c0: ea01 a33f f985 373f 2496 2540 565c 68c0
000002d0: ee61 1241 4a7c 8b3e 17fb 92bf 541d 853f
000002e0: 68a3 b240 50fd 4cc0 8511 233f 584b f3bf
000002f0: 0e1b 79c0 0b12 e63f f5fc 19bf 5654 3ec0
00000300: ebae aa40 8415 4fc0 e1aa 9fc0 bf23 3140
00000310: 156a 2bc0 547a 0ac0 b6cb b73f 2c6b 8d3f
00000320: d370 a03c a4fb 96bf 3881 ca3f 393c 9140
00000330: d448 89bf e05a 8fc0 241b 8fc0 5a62 9cc0
00000340: 1aa1 8540 fd67 49c0 2c5b b9bf 8cde ac3f
00000350: 2227 8d3e f14c 0440 e6f5 18bf da27 59c0
00000360: 9f98 2640 e489 aebf 9cab 723f b59a 2b3f
00000370: c24d 8a3e e81f 78c0 8794 b540 a71d 7540
00000380: eb9e 38c0 527b 2140 7358 99c0 49f7 de3d
00000390: c7ac 2140 2bf8 6840 1aca 41c0 7af8 643f
000003a0: 9559 dd3f f9a3 ec3f aca6 8cc0 217b 8abe
000003b0: 29ad 9f40 0399 6e40 f4f3 54c0 41ea fbbe
000003c0: 1537 b13d 359b 4fbf d91f c1be 7f75 bb3f
000003d0: 5c46 783f f002 23c1 01eb 07c0 ab80 6c40
000003e0: 2f37 81c0 1130 03c1 70f9 f6bf 0a94 05c0
000003f0: 8e6a 943f 7b31 21c0 c55e 783f 36ca cd3d
3.0631335 0.75228864 -0.19739783 0.22953424 2.6142986 8.453792 -3.1216884 -0.19216223
1.042057 3.420175 -1.1308726 -0.9192724 5.84421 0.7083877 1.3967245 -3.0262153
1.6521453 -5.768374 -1.480293 0.040463157 0.9999185 2.5668352 -1.1607035 3.317942
-0.49139354 -7.178692 -2.830664 -0.6870571 0.80152464 -1.2136168 -3.0272305 -0.68264234
-0.9644255 -3.6305878 0.545596 -3.508624 -1.8823407 1.6404747 0.8199182 -0.65593445
2.2589371 0.32177693 0.07685008 -6.5256805 1.5352457 -4.293272 3.7694778 3.4528072
0.18718155 -1.8347074 0.6122558 -0.54382795 12.487593 -0.920039 1.9921097 -0.77830136
-1.3974773 -4.752526 -2.8629293 0.30029804 3.2369204 -0.98009175 -1.390296 2.8137565
3.91806 2.10674 0.09334754 0.019307133 -2.2464495 -3.487054 1.0694437 6.700936
4.86589 0.55490845 -0.07832428 -1.0402374 1.78678 -8.325322 -0.5645006 1.4319686
4.527145 1.6400371 -0.49880475 3.8025715 -0.49895203 -0.051797118 -0.30750024 -5.863509
0.26763812 -1.1901119 0.22332926 4.298364 -0.4011642 -5.7030635 6.2828655 -3.6619735
-4.454389 4.132041 1.539232 -1.673563 1.7686293 0.38038778 0.46571288 4.8482127
1.9240732 -5.311716 4.3732576 3.259719 1.6551389 -2.2933345 0.5508405 2.6237435
-1.5559887 4.743089 -2.174156 -4.1044865 -0.67847544 -3.026051 -4.109014 2.1158276
3.8234437 -5.636094 2.071793 -0.0077860123 -0.13020721 4.913124 -2.1351683 1.8819469
-1.6456159 4.468978 -10.648212 3.4855623 1.4232911 -1.9868362 -2.412553 -1.9906425
5.087653 0.40129256 2.396962 0.3922546 -5.257781 0.34554997 -1.4764417 -2.3354492
4.6076217 -1.2823609 -4.7049575 6.3158355 -2.9035897 4.665644 5.694676 1.0672288
-3.499789 -0.2765939 -1.1714672 -2.6184802 0.45766503 -2.4545662 -6.527312 -7.4030695
1.1490111 1.2659135 0.7213529 0.27608854 -1.2402854 7.61715 -2.4763737 -0.6075608
2.1185508 6.4860716 -1.3421713 -1.5693661 -1.6223826 6.692206 -0.781653 -0.46576515
1.2734959 0.716888 2.5872889 -3.6306357 9.148909 0.27243263 -1.1482877 1.0399575
5.582447 -3.202961 0.6369861 -1.9007368 -3.8922763 1.7974256 -0.60151607 -2.9738975
5.3338523 -3.2356882 -4.9896092 2.7678068 -2.6783497 -2.1637163 1.4359043 1.1048331
0.019585049 -1.1795545 1.5820684 4.5386014 -1.072535 -4.479843 -4.472063 -4.887006
4.1759157 -3.146972 -1.4480948 1.3505416 0.27568918 2.0671961 -0.5975021 -3.3930573
2.6030653 -1.3635831 0.94793105 0.6703294 0.2701245 -3.8769474 5.674381 3.8299348
-2.8846996 2.5231519 -4.792047 0.1088701 2.5261705 3.640147 -3.0279603 0.89441645
1.7292963 1.848754 -4.3953457 -0.27047065 4.9898877 3.728089 -3.3273897 -0.4920216
0.08653084 -0.810962 -0.3771961 1.4645232 0.9698236 -10.188217 -2.1237185 3.6953533
-4.0379863 -8.199235 -1.9294872 -2.0871606 1.1595018 -2.518645 0.97019607 0.10048334

tabnet.encoder.initial_splitter.shared.shared_layers.1.weight f4 [32, 16]
00000000: 1520 8ec0 aa1d a6c0 7cbf a13f d3e7 f23f
00000010: ca3e 12bf ca55 53c0 fc9a 2540 778c da3e
00000020: 14a2 b8be 321e 25be 2268 503f 554b bd40
00000030: 2ca2 823f d561 bbbe 9e84 4cc0 1e16 bb3f
00000040: 7d77 5e40 e296 24c0 baf7 f53f 3da3 01bf
00000050: 5a22 1e3e 9d45 23c0 ea3c 60c0 2b89 c6bf
00000060: a5fe 20c0 52f2 a4c0 f59e c7c0 6eb7 723f
00000070: 7556 8240 9fc5 ac3f d448 9cbf 2188 933f
00000080: 5e75 7bc0 f057 9fc0 aacc 0640 5aad 543f
00000090: 6334 c53f 5e67 2940 4f19 f43e 0084 4ac0
000000a0: 0f33 a240 28d3 7dc0 b291 83be 226c 663e
000000b0: dc7c c53f 8fed 0e3d 8445 de3f 8d16 6dc0
000000c0: 1aa3 16c0 301e f23c 3333 2840 ae28 15c0
000000d0: 9814 a3bf 0ec5 c5bf 5876 c540 989f 5cbf
000000e0: 52c7 983c ebb3 3e40 118a a4bf 5e23 80bf
000000f0: 0e4a 4540 be50 c63e 84b7 8140 21d7 293f
00000100: 2ca0 3840 d2df e03f 6ae3 59c0 40aa 55c0
00000110: c39d 6cc0 0fd8 813f 5519 763e 9e72 973f
00000120: da64 8540 0345 033f 3ac3 b940 eed2 863f
00000130: ee8f 9740 58b1 5cbf 4c60 bf40 afb3 b2c0
00000140: 9aef 01c0 0951 04bf a88a e3be f353 3840
00000150: 0a00 133f 94fb 38c0 10a2 d2bf 25a3 de40
00000160: 6e28 393c a960 8040 3be7 56c0 0030 9abf
00000170: 1c74 3cc0 90d0 f73e 3e57 d1c0 a23a 0940
00000180: 3fad a3c0 f2ae 8bc0 b93c 8f40 b723 003e
00000190: 90ed c03e f1d2 b0bf 4275 0040 31ed 4440
000001a0: 2d95 0740 aa6c e83d f465 8640 d718 c63f
000001b0: 86d8 0b40 103c bdbf 3ee3 cd3f 1d2d e9bf
000001c0: ada1 603e c587 a740 c4d2 04c0 7918 2ec0
000001d0: ce06 a6be a249 833f c2f3 48bd 21e7 84bf
000001e0: 4f8c bf40 b967 0cc0 925b e3bd 6065 0740
000001f0: f733 18be d9d3 32bf 4ed6 d340 9c10 9a3f
00000200: 7c63 99be c83a 1e3f e5d5 be3f cfc5 2340
00000210: 4472 cbbe e2b7 ee3e 279d 2d41 1218 f8bf
00000220: ffc5 3ac0 f7f1 0bbf 6e65 0d3f 481d 6cbf
00000230: 38c5 3040 933b 50bf 2d4a 4940 fc3e 053f
00000240: 2d76 823f b8ae 18c0 1066 6b40 c079 3140
00000250: 5a2a 68be 8165 96c0 7e20 1a40 c76b cebf
00000260: d67c 9cc0 f8fa 433f d60c 2c40 2216 3340
00000270: e75b 3740 73ee 3a40 a5db debe 7a6b 7c40
00000280: 5f5f 813f 70a6 e540 a181 3ec0 ebdb 8cc0
00000290: df52 a2be 1ff5 0a40 fe41 2dc0 8637 833e
000002a0: e583 4a40 dca8 373e 5685 1f40 94b7 7c3f
000002b0: 59dd 5a40 ff1a 763e cb59 edbe 5f52 283f
000002c0: 3de9 b8c0 c13c 5a40 392a 9b3e fa1d c8c0
000002d0: db9c 08c0 63bb df3f 04fb 36c0 9739 e43e
000002e0: 17f0 07c0 a59d 2fbf ec5a dc3d f951 31be
000002f0: 0d18 8b40 eacb dfc0 0eba 06c0 ebb9 8abe
00000300: e0c2 e23f b64f 93c0 5785 b7c0 b283 193f
00000310: d0e7 65bc e5b0 dabf c056 89c0 d2e6 a73f
00000320: 9989 ec3f 6c67 ab3d e469 c3bf 36bd 92c0
00000330: 70d2 82bf a789 11c0 524f 3a3f b5c0 0fc0
00000340: c133 a3c0 9267 d63f 16ba 1a3e fb47 c93f
00000350: 3d54 81bd 15b3 943f ccab 3abf d7ff 0a40
00000360: a1ee c13e f415 1840 f996 9a40 8973 b53f
00000370: 21a0 2ac0 bf63 633e 51da 5cbf edd0 273e
00000380: f5ed 9dbe d63b debf 7c4e e33d e00b 03c0
00000390: e971 c43f 5b0c ef3f 596f b43f 01c2 8dbf
000003a0: 1bda 3a40 4d4f 8b3f d382 28c0 4d8f 2340
000003b0: 330f 4440 853d 083f 087a 65c0 b580 f7c0
000003c0: 4bb2 2abf 2993 fa3f 4b67 393f 6fbc 6840
000003d0: dff0 0ac0 aa38 0ec0 1178 f1bf 90d2 4440
000003e0: 2bb3 b1be a08d 6d3f 36a9 c9c0 a96b 18c0
000003f0: 7a60 a9bf ca2f 983e 2e00 21c0 0418 2ebf
-4.4414163 -5.191121 1.2636561 1.8976997 -0.5712706 -3.3021111 2.5875845 0.4268529
-0.36061156 -0.161248 0.81408894 5.915446 1.0205741 -0.36598077 -3.1955943 1.4616125
3.476043 -2.5717092 1.9216225 -0.50639707 0.15442792 -2.5511239 -3.503718 -1.551061
-2.5155423 -5.15458 -6.238154 0.9481114 4.073054 1.3497809 -1.2209725 1.1525918
-3.9290385 -4.9794846 2.1062417 0.83077013 1.5406612 2.646934 0.4767556 -3.1643066
5.0687327 -3.966013 -0.25697094 0.22502187 1.5428729 0.034894522 1.7364964 -3.7045014
-2.353705 0.02955541 2.628125 -2.330608 -1.274066 -1.5450761 6.1706963 -0.8618102
0.01864973 2.9797313 -1.2854635 -1.0010793 3.082645 0.38733476 4.053652 0.66343886
2.884776 1.7568305 -3.4045053 -3.3385162 -3.697129 1.0144061 0.24033101 1.1831853
4.168561 0.5127718 5.8050814 1.0533121 4.7363195 -0.86208105 5.980505 -5.584434
-2.030249 -0.5168615 -0.44441724 2.8801239 0.57421935 -2.890355 -1.6455708 6.957415
0.011301143 4.0117993 -3.3578632 -1.2045898 -2.9445868 0.48401308 -6.5418997 2.1442037
-5.114898 -4.3651056 4.4761624 0.12513624 0.37681246 -1.3814374 2.0071568 3.076977
2.11848 0.11348851 4.1999454 1.547633 2.1850905 -1.4783955 1.6084974 -1.8216892
0.21936674 5.2353234 -2.075364 -2.7202437 -0.32427067 1.0256846 -0.04906059 -1.0383035
5.9858775 -2.1938307 -0.1110145 2.1155624 -0.14863573 -0.69854504 6.6199102 1.2036319
-0.29958713 0.61808443 1.4909025 2.5589483 -0.39735615 0.46624666 10.850867 -1.9382346
-2.9183347 -0.54666084 0.55232894 -0.9223218 2.7620373 -0.81340903 3.1451523 0.5204923
1.0192314 -2.385664 3.6781044 2.773056 -0.22672406 -4.6998906 2.4082332 -1.6126641
-4.890239 0.7655482 2.6882834 2.7982259 2.8649843 2.9208038 -0.4352695 3.9440598
1.010723 7.176567 -2.976662 -4.4018455 -0.3170385 2.171211 -2.7071528 0.256283
3.1643002 0.17935508 2.4925132 0.9871762 3.41976 0.24033736 -0.4635757 0.6575069
-5.7784715 3.4099581 0.3030565 -6.2536592 -2.1345737 1.7479061 -2.8590708 0.44575188
-2.124029 -0.6859992 0.107595295 -0.17316426 4.346686 -6.993642 -2.1051059 -0.2709497
1.7715721 -4.6034803 -5.735027 0.59966576 -0.014032319 -1.7085234 -4.2918396 1.3117316
1.8479491 0.083693355 -1.526669 -4.585597 -1.022047 -2.2740266 0.72777283 -2.246137
-5.1000676 1.6750357 0.15110049 1.5725092 -0.06314895 1.1617151 -0.7291839 2.1718652
0.37877372 2.37634 4.8309293 1.4175884 -2.6660235 0.22206019 -0.86270624 0.16388293
-0.3084561 -1.736201 0.11098954 -2.0475998 1.5347263 1.8675646 1.4096481 -1.107483
2.919562 1.0883576 -2.6329849 2.5556214 3.0634277 0.5321887 -3.5855732 -7.7344613
-0.66678303 1.957616 0.7242324 3.636501 -2.1709516 -2.2222085 -1.8864766 3.0753517
-0.34707007 0.9279423 -6.3019056 -2.381571 -1.3232567 0.2972396 -2.515636 -0.68005395

tabnet.encoder.initial_splitter.shared.glu_layers.0.fc.weight f4 [32, 8]
00000000: 610a 4440 fd95 403f a822 4abe 060b 6b3e
00000010: ab50 2740 bb42 0741 bec9 47c0 2dc6 44be
00000020: 2062 853f 26e4 5a40 6fc0 90bf 7055 6bbf
00000030: c503 bb40 e558 353f dec7 b23f 83ad 41c0
00000040: 7f79 d33f 8596 b8c0 3e7a bdbf b2bc 253d
00000050: a9fa 7f3f 0747 2440 ef91 94bf 2959 5440
00000060: ef97 fbbe d8b7 e5c0 9929 35c0 f9e2 2fbf
00000070: b830 4d3f cc57 9bbf 25be 41c0 a6c1 2ebf
00000080: 97e4 76bf 8d5b 68c0 2eac 0b3f 4c8d 60c0
00000090: 8af0 f0bf 13fb d13f 29e6 513f 52eb 27bf
000000a0: 6d92 1040 f2bf a43e 9363 9d3d 60d2 d0c0
000000b0: ee82 c43f 7c62 89c0 203f 7140 cbfa 5c40
000000c0: 85ac 3f3e b1d7 eabf ccbc 1c3f 4f38 0bbf
000000d0: 2ecd 4741 ad87 6bbf 73fd fe3f c23e 47bf
000000e0: 89e0 b2bf b114 98c0 3c3a 37c0 aac0 993e
000000f0: b429 4f40 4be7 7abf 38f5 b1bf 9614 3440
00000100: 7fc1 7a40 d4d4 0640 ff2c bf3d fe29 9e3c
00000110: d4c5 0fc0 e52b 5fc0 88e3 883f 116e d640
00000120: 5fb5 9b40 7b0e 0e3f 7b68 a0bd 8026 85bf
00000130: 35b5 e43f 8534 05c1 1c83 10bf bf4a b73f
00000140: 5fde 9040 bcec d13f 5663 ffbe 555d 7340
00000150: a476 ffbe 3729 54bd ac70 9dbe dea1 bbc0
00000160: dd07 893e 9655 98bf 6db0 643e 338c 8940
00000170: 6565 cdbe 7f7f b6c0 3c0d c940 c65d 6ac0
00000180: 5b8a 8ec0 ae39 8440 8e05 c53f 5037 d6bf
00000190: 7262 e23f 30c2 c23e eb71 ee3e 8f24 9b40
000001a0: 0848 f63f 94f9 a9c0 baf1 8b40 3c9f 5040
000001b0: 97db d33f fec5 12c0 e203 0d3f 6aeb 2740
000001c0: a32a c7bf 63c7 9740 5f25 0bc0 f457 83c0
000001d0: 91b0 2dbf d2aa 41c0 0b7d 83c0 b869 0740
000001e0: 4db3 7440 e25a b4c0 4298 0440 ce21 ffbb
000001f0: 0a55 05be 5038 9d40 99a6 08c0 a3e3 f03f
00000200: 8ba3 d2bf de01 8f40 145f 2ac1 7413 5f40
00000210: 672e b63f a650 febf 4567 1ac0 60cd febf
00000220: 0ece a240 3876 cd3e d367 1940 98d5 c83e
00000230: be3f a8c0 edeb b03e 0bfc bcbf 0078 15c0
00000240: a371 9340 6724 a4bf 038f 96c0 531b ca40
00000250: 6ad4 39c0 f54c 9540 c93a b640 f49a 883f
00000260: 8bfc 5fc0 b79d 8dbe a3f2 95bf 2e95 27c0
00000270: 1253 ea3e 9d17 1dc0 bddf d0c0 f2e5 ecc0
00000280: cc12 933f 7409 a23f 95aa 383f 7a5b 8d3e
00000290: acc1 9ebf b1bf f340 e87c 1ec0 1b89 1bbf
000002a0: 5696 0740 e68d cf40 45cc abbf fde0 c8bf
000002b0: 3caa cfbf 8d26 d640 691a 48bf c578 eebe
000002c0: ea01 a33f f985 373f 2496 2540 565c 68c0
000002d0: ee61 1241 4a7c 8b3e 17fb 92bf 541d 853f
000002e0: 68a3 b240 50fd 4cc0 8511 233f 584b f3bf
000002f0: 0e1b 79c0 0b12 e63f f5fc 19bf 5654 3ec0
00000300: ebae aa40 8415 4fc0 e1aa 9fc0 bf23 3140
00000310: 156a 2bc0 547a 0ac0 b6cb b73f 2c6b 8d3f
00000320: d370 a03c a4fb 96bf 3881 ca3f 393c 9140
00000330: d448 89bf e05a 8fc0 241b 8fc0 5a62 9cc0
00000340: 1aa1 8540 fd67 49c0 2c5b b9bf 8cde ac3f
00000350: 2227 8d3e f14c 0440 e6f5 18bf da27 59c0
00000360: 9f98 2640 e489 aebf 9cab 723f b59a 2b3f
00000370: c24d 8a3e e81f 78c0 8794 b540 a71d 7540
00000380: eb9e 38c0 527b 2140 7358 99c0 49f7 de3d
00000390: c7ac 2140 2bf8 6840 1aca 41c0 7af8 643f
000003a0: 9559 dd3f f9a3 ec3f aca6 8cc0 217b 8abe
000003b0: 29ad 9f40 0399 6e40 f4f3 54c0 41ea fbbe
000003c0: 1537 b13d 359b 4fbf d91f c1be 7f75 bb3f
000003d0: 5c46 783f f002 23c1 01eb 07c0 ab80 6c40
000003e0: 2f37 81c0 1130 03c1 70f9 f6bf 0a94 05c0
000003f0: 8e6a 943f 7b31 21c0 c55e 783f 36ca cd3d
3.0631335 0.75228864 -0.19739783 0.22953424 2.6142986 8.453792 -3.1216884 -0.19216223
1.042057 3.420175 -1.1308726 -0.9192724 5.84421 0.7083877 1.3967245 -3.0262153
1.6521453 -5.768374 -1.480293 0.040463157 0.9999185 2.5668352 -1.1607035 3.317942
-0.49139354 -7.178692 -2.830664 -0.6870571 0.80152464 -1.2136168 -3.0272305 -0.68264234
-0.9644255 -3.6305878 0.545596 -3.508624 -1.8823407 1.6404747 0.8199182 -0.65593445
2.2589371 0.32177693 0.07685008 -6.5256805 1.5352457 -4.293272 3.7694778 3.4528072
0.18718155 -1.8347074 0.6122558 -0.54382795 12.487593 -0.920039 1.9921097 -0.77830136
-1.3974773 -4.752526 -2.8629293 0.30029804 3.2369204 -0.98009175 -1.390296 2.8137565
3.91806 2.10674 0.09334754 0.019307133 -2.2464495 -3.487054 1.0694437 6.700936
4.86589 0.55490845 -0.07832428 -1.0402374 1.78678 -8.325322 -0.5645006 1.4319686
4.527145 1.6400371 -0.49880475 3.8025715 -0.49895203 -0.051797118 -0.30750024 -5.863509
0.26763812 -1.1901119 0.22332926 4.298364 -0.4011642 -5.7030635 6.2828655 -3.6619735
-4.454389 4.132041 1.539232 -1.673563 1.7686293 0.38038778 0.46571288 4.8482127
1.9240732 -5.311716 4.3732576 3.259719 1.6551389 -2.2933345 0.5508405 2.6237435
-1.5559887 4.743089 -2.174156 -4.1044865 -0.67847544 -3.026051 -4.109014 2.1158276
3.8234437 -5.636094 2.071793 -0.0077860123 -0.13020721 4.913124 -2.1351683 1.8819469
-1.6456159 4.468978 -10.648212 3.4855623 1.4232911 -1.9868362 -2.412553 -1.9906425
5.087653 0.40129256 2.396962 0.3922546 -5.257781 0.34554997 -1.4764417 -2.3354492
4.6076217 -1.2823609 -4.7049575 6.3158355 -2.9035897 4.665644 5.694676 1.0672288
-3.499789 -0.2765939 -1.1714672 -2.6184802 0.45766503 -2.4545662 -6.527312 -7.4030695
1.1490111 1.2659135 0.7213529 0.27608854 -1.2402854 7.61715 -2.4763737 -0.6075608
2.1185508 6.4860716 -1.3421713 -1.5693661 -1.6223826 6.692206 -0.781653 -0.46576515
1.2734959 0.716888 2.5872889 -3.6306357 9.148909 0.27243263 -1.1482877 1.0399575
5.582447 -3.202961 0.6369861 -1.9007368 -3.8922763 1.7974256 -0.60151607 -2.9738975
5.3338523 -3.2356882 -4.9896092 2.7678068 -2.6783497 -2.1637163 1.4359043 1.1048331
0.019585049 -1.1795545 1.5820684 4.5386014 -1.072535 -4.479843 -4.472063 -4.887006
4.1759157 -3.146972 -1.4480948 1.3505416 0.27568918 2.0671961 -0.5975021 -3.3930573
2.6030653 -1.3635831 0.94793105 0.6703294 0.2701245 -3.8769474 5.674381 3.8299348
-2.8846996 2.5231519 -4.792047 0.1088701 2.5261705 3.640147 -3.0279603 0.89441645
1.7292963 1.848754 -4.3953457 -0.27047065 4.9898877 3.728089 -3.3273897 -0.4920216
0.08653084 -0.810962 -0.3771961 1.4645232 0.9698236 -10.188217 -2.1237185 3.6953533
-4.0379863 -8.199235 -1.9294872 -2.0871606 1.1595018 -2.518645 0.97019607 0.10048334

tabnet.encoder.initial_splitter.shared.glu_layers.0.bn.bn.weight f4 [32]
00000000: 3875 5e40 841d 6940 f2d4 3340 759a 3740
00000010: 6e70 18bd 9fe1 8c3f 5926 af40 bb1f 5440
00000020: 4742 1440 4e4f 9840 01ab c2bf b994 273f
00000030: 566e d03f 51af 5740 c32d 5740 e58b c240
00000040: 0cb1 29c0 79b6 8c40 78e2 4140 eef7 3c41
00000050: d6f9 92bd 1296 b340 9301 3940 dd46 7940
00000060: af70 5f3f 17f5 d540 2792 873f 8aa7 e7bb
00000070: 1757 b040 1360 c840 d37f b740 d32a 74c0
3.4759045 3.6424265 2.8098722 2.8688023 -0.037216596 1.1006354 5.473431 3.3144367
2.3165452 4.7596807 -1.5208436 0.6546131 1.6283672 3.3700755 3.362168 6.079577
-2.651431 4.3972745 3.0294476 11.81053 -0.07176559 5.612069 2.890721 3.8949502
0.87281317 6.686168 1.0591477 -0.0070695328 5.510631 6.261728 5.7343535 -3.8151138

tabnet.encoder.initial_splitter.shared.glu_layers.0.bn.bn.bias f4 [32]
00000000: 6d8d 733f bff5 f2be 33b7 4a40 4342 3fc0
00000010: c042 10be 3960 a140 0256 0cc0 51a2 0fbf
00000020: 84d9 153f e9f7 293f e5c8 40bf 27e9 753f
00000030: 20b5 5040 17b6 9abf 4893 2840 d5da 6abf
00000040: 3bf0 a1c0 5bc3 963e 2ff1 5dc0 b99e c1bf
00000050: 3eed b7c0 3741 17c0 0f3b 973d 87bf dbbe
00000060: 264f 2840 d1f8 31c0 85dc 61c0 ac5c 96c0
00000070: 06b3 84c0 e70c 49bf 4bf9 3fc0 2c8a 96c0
0.95137674 -0.47453114 3.1674316 -2.9884193 -0.14087963 5.042996 -2.1927495 -0.5610705
0.5853503 0.66393906 -0.7530654 0.9605889 3.261055 -1.208682 2.6339893 -0.9174016
-5.060575 0.2944592 -3.4678457 -1.5126563 -5.74771 -2.3633554 0.073843114 -0.4291956
2.6298308 -2.7808115 -3.5290844 -4.6988125 -4.1468534 -0.7853531 -2.9995906 -4.7043667

tabnet.encoder.initial_splitter.shared.glu_layers.0.bn.bn.running_mean f4 [32]
00000000: 86f9 8342 3696 d3c0 3493 1942 2e8c 8841
00000010: 5642 c441 449c 2dc2 f3bf e2c0 87db 1b41
00000020: b79c 23c2 2032 93c2 9740 8cc0 13ee 31c2
00000030: f48b 29c1 3818 e7c0 3a4d 11c2 a3d8 5842
00000040: e042 9dc1 3082 dbbe ffdc 1c42 c86d 0ec1
00000050: 2bc9 7142 2002 0942 d1f9 abc0 0c18 b541
00000060: 0e9a 00c1 db5a d5c1 bf9a d741 789f 09c2
00000070: 98b6 dc41 4d23 d541 6416 a1c2 f2a8 0241
65.98735 -6.6120863 38.393753 17.068447 24.53239 -43.402603 -7.0859313 9.741096
-40.90304 -73.5979 -4.3828845 -44.482494 -10.596668 -7.2217064 -36.325417 54.21156
-19.657654 -0.42872763 39.215816 -8.901802 60.446453 34.252075 -5.374245 22.636742
-8.037611 -26.669363 26.95056 -34.40573 27.589157 26.642237 -80.54373 8.166246

tabnet.encoder.initial_splitter.shared.glu_layers.0.bn.bn.running_var f4 [32]
00000000: f771 f343 dc15 2644 38b8 e443 fa48 7844
00000010: 3b5c 8443 5db8 b843 9bb8 cd44 6827 cf43
00000020: 0df6 1644 61f4 cf43 d2d1 c143 75a3 dd43
00000030: fd2a 4044 52d0 c543 8708 b443 9aac 0244
00000040: e42f d243 4c93 f143 5d32 0d44 f62c 8b44
00000050: 6d40 9c43 b54b 5044 b686 7344 8d60 2044
00000060: c9c5 eb43 05c6 4544 a964 b443 cc0a d343
00000070: 9210 ae43 f17a f043 4cce 1144 e930 8144
486.89035 664.34155 457.4392 993.14026 264.72055 369.44034 1645.7689 414.30786
603.84454 415.9092 387.63922 443.277 768.6717 395.6275 360.06662 522.6969
420.37415 483.15076 564.7869 1113.405 312.50333 833.1829 974.10486 641.5086
471.5452 791.09406 360.7864 422.08435 348.12946 480.96048 583.2234 1033.5284

tabnet.encoder.initial_splitter.shared.glu_layers.1.fc.weight f4 [32, 16]
00000000: 1520 8ec0 aa1d a6c0 7cbf a13f d3e7 f23f
00000010: ca3e 12bf ca55 53c0 fc9a 2540 778c da3e
00000020: 14a2 b8be 321e 25be 2268 503f 554b bd40
00000030: 2ca2 823f d561 bbbe 9e84 4cc0 1e16 bb3f
00000040: 7d77 5e40 e296 24c0 baf7 f53f 3da3 01bf
00000050: 5a22 1e3e 9d45 23c0 ea3c 60c0 2b89 c6bf
00000060: a5fe 20c0 52f2 a4c0 f59e c7c0 6eb7 723f
00000070: 7556 8240 9fc5 ac3f d448 9cbf 2188 933f
00000080: 5e75 7bc0 f057 9fc0 aacc 0640 5aad 543f
00000090: 6334 c53f 5e67 2940 4f19 f43e 0084 4ac0
000000a0: 0f33 a240 28d3 7dc0 b291 83be 226c 663e
000000b0: dc7c c53f 8fed 0e3d 8445 de3f 8d16 6dc0
000000c0: 1aa3 16c0 301e f23c 3333 2840 ae28 15c0
000000d0: 9814 a3bf 0ec5 c5bf 5876 c540 989f 5cbf
000000e0: 52c7 983c ebb3 3e40 118a a4bf 5e23 80bf
000000f0: 0e4a 4540 be50 c63e 84b7 8140 21d7 293f
00000100: 2ca0 3840 d2df e03f 6ae3 59c0 40aa 55c0
00000110: c39d 6cc0 0fd8 813f 5519 763e 9e72 973f
00000120: da64 8540 0345 033f 3ac3 b940 eed2 863f
00000130: ee8f 9740 58b1 5cbf 4c60 bf40 afb3 b2c0
00000140: 9aef 01c0 0951 04bf a88a e3be f353 3840
00000150: 0a00 133f 94fb 38c0 10a2 d2bf 25a3 de40
00000160: 6e28 393c a960 8040 3be7 56c0 0030 9abf
00000170: 1c74 3cc0 90d0 f73e 3e57 d1c0 a23a 0940
00000180: 3fad a3c0 f2ae 8bc0 b93c 8f40 b723 003e
00000190: 90ed c03e f1d2 b0bf 4275 0040 31ed 4440
000001a0: 2d95 0740 aa6c e83d f465 8640 d718 c63f
000001b0: 86d8 0b40 103c bdbf 3ee3 cd3f 1d2d e9bf
000001c0: ada1 603e c587 a740 c4d2 04c0 7918 2ec0
000001d0: ce06 a6be a249 833f c2f3 48bd 21e7 84bf
000001e0: 4f8c bf40 b967 0cc0 925b e3bd 6065 0740
000001f0: f733 18be d9d3 32bf 4ed6 d340 9c10 9a3f
00000200: 7c63 99be c83a 1e3f e5d5 be3f cfc5 2340
00000210: 4472 cbbe e2b7 ee3e 279d 2d41 1218 f8bf
00000220: ffc5 3ac0 f7f1 0bbf 6e65 0d3f 481d 6cbf
00000230: 38c5 3040 933b 50bf 2d4a 4940 fc3e 053f
00000240: 2d76 823f b8ae 18c0 1066 6b40 c079 3140
00000250: 5a2a 68be 8165 96c0 7e20 1a40 c76b cebf
00000260: d67c 9cc0 f8fa 433f d60c 2c40 2216 3340
00000270: e75b 3740 73ee 3a40 a5db debe 7a6b 7c40
00000280: 5f5f 813f 70a6 e540 a181 3ec0 ebdb 8cc0
00000290: df52 a2be 1ff5 0a40 fe41 2dc0 8637 833e
000002a0: e583 4a40 dca8 373e 5685 1f40 94b7 7c3f
000002b0: 59dd 5a40 ff1a 763e cb59 edbe 5f52 283f
000002c0: 3de9 b8c0 c13c 5a40 392a 9b3e fa1d c8c0
000002d0: db9c 08c0 63bb df3f 04fb 36c0 9739 e43e
000002e0: 17f0 07c0 a59d 2fbf ec5a dc3d f951 31be
000002f0: 0d18 8b40 eacb dfc0 0eba 06c0 ebb9 8abe
00000300: e0c2 e23f b64f 93c0 5785 b7c0 b283 193f
00000310: d0e7 65bc e5b0 dabf c056 89c0 d2e6 a73f
00000320: 9989 ec3f 6c67 ab3d e469 c3bf 36bd 92c0
00000330: 70d2 82bf a789 11c0 524f 3a3f b5c0 0fc0
00000340: c133 a3c0 9267 d63f 16ba 1a3e fb47 c93f
00000350: 3d54 81bd 15b3 943f ccab 3abf d7ff 0a40
00000360: a1ee c13e f415 1840 f996 9a40 8973 b53f
00000370: 21a0 2ac0 bf63 633e 51da 5cbf edd0 273e
00000380: f5ed 9dbe d63b debf 7c4e e33d e00b 03c0
00000390: e971 c43f 5b0c ef3f 596f b43f 01c2 8dbf
000003a0: 1bda 3a40 4d4f 8b3f d382 28c0 4d8f 2340
000003b0: 330f 4440 853d 083f 087a 65c0 b580 f7c0
000003c0: 4bb2 2abf 2993 fa3f 4b67 393f 6fbc 6840
000003d0: dff0 0ac0 aa38 0ec0 1178 f1bf 90d2 4440
000003e0: 2bb3 b1be a08d 6d3f 36a9 c9c0 a96b 18c0
000003f0: 7a60 a9bf ca2f 983e 2e00 21c0 0418 2ebf
-4.4414163 -5.191121 1.2636561 1.8976997 -0.5712706 -3.3021111 2.5875845 0.4268529
-0.36061156 -0.161248 0.81408894 5.915446 1.0205741 -0.36598077 -3.1955943 1.4616125
3.476043 -2.5717092 1.9216225 -0.50639707 0.15442792 -2.5511239 -3.503718 -1.551061
-2.5155423 -5.15458 -6.238154 0.9481114 4.073054 1.3497809 -1.2209725 1.1525918
-3.9290385 -4.9794846 2.1062417 0.83077013 1.5406612 2.646934 0.4767556 -3.1643066
5.0687327 -3.966013 -0.25697094 0.22502187 1.5428729 0.034894522 1.7364964 -3.7045014
-2.353705 0.02955541 2.628125 -2.330608 -1.274066 -1.5450761 6.1706963 -0.8618102
0.01864973 2.9797313 -1.2854635 -1.0010793 3.082645 0.38733476 4.053652 0.66343886
2.884776 1.7568305 -3.4045053 -3.3385162 -3.697129 1.0144061 0.24033101 1.1831853
4.168561 0.5127718 5.8050814 1.0533121 4.7363195 -0.86208105 5.980505 -5.584434
-2.030249 -0.5168615 -0.44441724 2.8801239 0.57421935 -2.890355 -1.6455708 6.957415
0.011301143 4.0117993 -3.3578632 -1.2045898 -2.9445868 0.48401308 -6.5418997 2.1442037
-5.114898 -4.3651056 4.4761624 0.12513624 0.37681246 -1.3814374 2.0071568 3.076977
2.11848 0.11348851 4.1999454 1.547633 2.1850905 -1.4783955 1.6084974 -1.8216892
0.21936674 5.2353234 -2.075364 -2.7202437 -0.32427067 1.0256846 -0.04906059 -1.0383035
5.9858775 -2.1938307 -0.1110145 2.1155624 -0.14863573 -0.69854504 6.6199102 1.2036319
-0.29958713 0.61808443 1.4909025 2.5589483 -0.39735615 0.46624666 10.850867 -1.9382346
-2.9183347 -0.54666084 0.55232894 -0.9223218 2.7620373 -0.81340903 3.1451523 0.5204923
1.0192314 -2.385664 3.6781044 2.773056 -0.22672406 -4.6998906 2.4082332 -1.6126641
-4.890239 0.7655482 2.6882834 2.7982259 2.8649843 2.9208038 -0.4352695 3.9440598
1.010723 7.176567 -2.976662 -4.4018455 -0.3170385 2.171211 -2.7071528 0.256283
3.1643002 0.17935508 2.4925132 0.9871762 3.41976 0.24033736 -0.4635757 0.6575069
-5.7784715 3.4099581 0.3030565 -6.2536592 -2.1345737 1.7479061 -2.8590708 0.44575188
-2.124029 -0.6859992 0.107595295 -0.17316426 4.346686 -6.993642 -2.1051059 -0.2709497
1.7715721 -4.6034803 -5.735027 0.59966576 -0.014032319 -1.7085234 -4.2918396 1.3117316
1.8479491 0.083693355 -1.526669 -4.585597 -1.022047 -2.2740266 0.72777283 -2.246137
-5.1000676 1.6750357 0.15110049 1.5725092 -0.06314895 1.1617151 -0.7291839 2.1718652
0.37877372 2.37634 4.8309293 1.4175884 -2.6660235 0.22206019 -0.86270624 0.16388293
-0.3084561 -1.736201 0.11098954 -2.0475998 1.5347263 1.8675646 1.4096481 -1.107483
2.919562 1.0883576 -2.6329849 2.5556214 3.0634277 0.5321887 -3.5855732 -7.7344613
-0.66678303 1.957616 0.7242324 3.636501 -2.1709516 -2.2222085 -1.8864766 3.0753517
-0.34707007 0.9279423 -6.3019056 -2.381571 -1.3232567 0.2972396 -2.515636 -0.68005395

tabnet.encoder.initial_splitter.shared.glu_layers.1.bn.bn.weight f4 [32]
00000000: cb05 113f a3b8 5940 f409 b640 5be8 4f3f
00000010: 0e26 5740 ea9a 6b40 a781 2440 b2e9 eebe
00000020: db0c 4140 64c1 3740 909c f13d 5105 b540
00000030: 5b2c 0a40 4cdb b8bd 5236 4e40 6180 b63d
00000040: c8f2 853f 0445 0640 58f3 cc40 9e29 c940
00000050: 9ad8 2340 8052 2740 597e d640 4a02 eb3e
00000060: a813 a940 f150 3e40 b530 7abd 206d 8c40
00000070: 7599 0541 d81f 973d 6fe0 0541 8dff 2d3e
0.56649464 3.4018943 5.688715 0.8121392 3.3616977 3.6813302 2.5704134 -0.4666267
3.0164096 2.8711786 0.1179744 5.656899 2.1589572 -0.090262026 3.2220654 0.08911205
1.0464716 2.0979624 6.404705 6.28633 2.5600953 2.6144104 6.7029233 0.45900184
5.2836494 2.9736903 -0.061081607 4.388321 8.349965 0.073791206 8.367293 0.16992016

tabnet.encoder.initial_splitter.shared.glu_layers.1.bn.bn.bias f4 [32]
00000000: 2116 a6bf ba6d 3d40 4424 c83f 599d b7c0
00000010: 1633 a6bc 17bd 26c0 8c25 8ac0 2229 c93e
00000020: d3c0 54c0 66b3 bebf 0952 743e 091f ae3f
00000030: 2235 52c0 62db a9bd 4ddb 3cc0 6ac9 dc3e
00000040: 8bc7 d0c0 dbd3 4bc0 ee40 1fc0 7305 78c0
00000050: 38ec 7ac0 c8c4 1bc0 dc47 df3f 266e 95c0
00000060: cd1f 273f add0 033c 3b63 95c0 94e1 0bc0
00000070: 8d2e 89bf 5ee3 06c1 85e5 59c0 666d c4c0
-1.2975503 2.9598222 1.5636067 -5.7379575 -0.020288032 -2.6052911 -4.3170834 0.39289194
-3.324269 -1.4898498 0.23859419 1.3603221 -3.284493 -0.08293797 -2.950885 0.43122417
-6.5243583 -3.1848056 -2.488338 -3.8753326 -3.9206676 -2.4338856 1.7443805 -4.669696
0.652829 0.008045358 -4.668363 -2.1856432 -1.0717331 -8.43051 -3.4046338 -6.1383543

tabnet.encoder.initial_splitter.shared.glu_layers.1.bn.bn.running_mean f4 [32]
00000000: f9c1 16c0 7358 02c1 c38c 8941 caaa 7341
00000010: 61d6 9741 1cbb 90c1 f742 5241 a166 a040
00000020: 1c48 5c41 91cb 11c1 01d8 24bf ccdb 0841
00000030: baad e2bf 86b6 72c0 767a 7241 a1f9 59c1
00000040: 3ce5 aec1 02ea a7c0 4691 f9c0 6db6 d7bf
00000050: 0f0e 81c1 bde6 4ec1 9ad0 5241 ddef ec3f
00000060: 7eb4 0641 aeb5 85c0 b75d 66c0 6650 08c1
00000070: 9734 e2be e42c e3bf 0db0 9b41 1c4e 9541
-2.3555892 -8.146594 17.193731 15.229197 18.979677 -18.091362 13.141349 5.012528
13.767605 -9.112199 -0.64392096 8.553661 -1.7709267 -3.7923903 15.154898 -13.623445
-21.86193 -5.2473154 -7.7989836 -1.6852547 -16.131865 -12.931333 13.175928 1.85107
8.419065 -4.1784277 -3.59947 -8.519629 -0.44180748 -1.7748075 19.460962 18.66314

tabnet.encoder.initial_splitter.shared.glu_layers.1.bn.bn.running_var f4 [32]
00000000: 927a fe43 38fd b943 5b88 2644 223b b443
00000010: 9f8b 7344 2a00 9344 0246 9743 4b94 6b44
00000020: 78c1 1f44 aa3e 3244 0bd8 3d44 ec50 9544
00000030: ee63 b443 6718 f942 b7de 9f43 47fe 6d43
00000040: 1b3e 0144 2b5c 8443 984e d243 9f7e ee43
00000050: 9463 3c44 b699 6244 4702 0a44 8c17 3d44
00000060: 26ce 4144 db3c 9b43 0257 9d43 3c0d a143
00000070: 016f b943 9ba6 1643 6cf9 2844 7509 9344
508.95758 371.97827 666.13055 360.46198 974.1816 1176.0051 302.54694 942.3171
639.02295 712.9791 759.3757 1194.5288 360.7807 124.54766 319.73996 237.99327
516.9704 264.72006 420.614 476.98923 753.5559 906.40173 552.0356 756.3679
775.22107 310.47543 314.67975 322.1034 370.86722 150.6508 675.8972 1176.2955

tabnet.encoder.initial_splitter.specifics.glu_layers.0.fc.weight f4 [32, 16]
00000000: b351 ed3f 2b1e 7240 a337 84be 034d 40c0
00000010: ad87 d73f cde1 8cc0 f693 69c0 b279 78c0
00000020: 38a9 e1be f76d 5dc0 0ffc de3d d3d2 013f
00000030: 4340 563f 0787 7d3e 5eaa 1c3f 389a e43f
00000040: db1c 3340 9e4e af3f 92bf b63e f946 35c0
00000050: b204 8740 feeb 94c0 053a 9ac0 b6ab e6bf
00000060: 44ca 4f3f 5227 93bf 5b5b 96bf 99fd 3240
00000070: 1e51 9dbf 2f2d 1240 cfc9 883f 28f7 b840
00000080: 3769 0340 3923 973f 8ef0 d6c0 a7ca 9340
00000090: e40e ecbf 9223 7ec0 ae1e 373f 209a 23c0
000000a0: 1276 02bf 855e 883f cc50 22c0 a510 bbbf
000000b0: c513 4dbf 3e42 e6bf 4dcf 87bf 29ae 9e40
000000c0: 8047 d1bf d87c 1ebf d7a8 36c0 f2b4 0b3f
000000d0: 789c 9ec0 fb34 2740 54d7 6740 c969 1bc0
000000e0: d67c 523f 96b9 f3c0 fe37 59bf 4519 953e
000000f0: ad32 8ebf 54f1 6dbf 417e 4740 02c4 a3bf
00000100: e01d a13f a5e2 dc3f ef64 a93f fb9e 11c0
00000110: f095 933f 6ec9 9b3e 4092 08c0 7794 08c0
00000120: b707 cdbe 2c62 b6c0 a1bc 893f bfc3 9f3e
00000130: ba18 5a3f dc85 9cbf f238 b4bf 34c2 57c0
00000140: 2743 2940 f26a e5bf 0aa1 1f3f 36af 363f
00000150: 6b81 4a3f 9b62 0240 6ac9 e73e fdb2 843f
00000160: d7ff 6bbf ea94 ca3f 3688 0ebf 8436 37c0
00000170: e4b3 1e3f 7f0e de3f 3c4e bb3f c691 1fbf
00000180: 920c fbbf 8aec 70c0 2f4e fbbe a061 8d40
00000190: 7b06 21c0 8432 a340 53a1 3c40 0322 1e40
000001a0: 6671 c13e 5642 ed3f 919b ce3e ff93 53bf
000001b0: 8607 a6be d012 0cc0 c01e 97be b3ea 30bf
000001c0: 152b 77be 3c53 8c3e 81bf c53e 1469 06c0
000001d0: 7497 833f 5310 efbc b4cb e7bf bc0d cc3f
000001e0: 3199 fb3f a001 f8c0 10c5 8540 967b 5240
000001f0: 8c9e 9140 4402 b5bf 6488 7840 06f3 75c0
00000200: a983 6cc0 5957 0fc0 79d7 21bf f071 413f
00000210: f7b9 6ec0 a883 8ec0 1ee6 44c0 8bdc 87c0
00000220: 4b9a 2640 e41d 1e40 23e3 6ac0 c4df 0e40
00000230: e6e2 9ec0 d2b9 ce3f 27f7 a640 f62e 253e
00000240: d389 89be e02c e5be 2775 153c 3fa6 853f
00000250: 484b ef3e cc84 25bf 31a6 7d3f 697c 30bf
00000260: fc38 423f 4df3 de3f aef9 54bf dcb1 ecbf
00000270: 943b 9bbe 6fa9 013e 92c6 a83f ea48 283f
00000280: f330 b6bf 07b3 16c0 52d7 0bc0 a2d7 433f
00000290: c532 d43d 8224 213f 4929 d7bf 51e3 053f
000002a0: 2ed2 e4bf 1352 5140 baf6 973e 00f9 54bf
000002b0: 7e30 4b3d 97b5 fd3e 0688 ca3e 4715 9cbe
000002c0: a876 5640 dc35 8fc0 6c09 ea40 52c0 1d3e
000002d0: 2229 23c0 3042 6d40 e677 2d40 32a8 133f
000002e0: db53 c6bf 5b83 dbbf 48c0 9a3f 1cfc d8be
000002f0: 9e93 3a40 fd4f 34be 0b1d ecbf 4dd8 3440
00000300: 5117 26c0 82f2 6c3f e3ea bc3f ef00 15bf
00000310: 8a72 cdbf 8b70 0441 9dd0 c53f 51c5 29c0
00000320: a4e5 1c40 7ecf 61bf 2310 bfbe 9137 b7bf
00000330: f1d6 20c0 b1de 0cc0 51ab 80bf c508 0940
00000340: ba98 aa40 bc9f 54bf 8547 9dbf f161 db40
00000350: ea97 8340 6752 a03e 5138 8fbf db82 f9bd
00000360: 4bb9 8fbf bf10 cd3f c087 9dbf 38e4 afc0
00000370: be20 5d40 448e 0640 cc09 9c40 1281 d63f
00000380: eaf1 cbbe 3f12 03c0 1158 e2bf f94a f33e
00000390: aeca 29c0 1c86 9d3f 3fed e83f 5aea 103f
000003a0: 1838 8dbe 24d0 ff3f 7a2d 193f 6b21 f1bf
000003b0: 45b0 82bf 3704 0540 7e02 1ebf dd55 4c3e
000003c0: 32d6 913f 0df6 8ec0 7eb3 6440 e6a6 9f40
000003d0: db2c 9ac0 e4a7 0240 31f3 7d40 e333 573f
000003e0: 92b8 0bc0 5db1 0c3f a01e 10c0 6ce9 8b3e
000003f0: d04d 7040 f45d a03e bedc a0bb c5c7 ad3f
1.8540558 3.7830913 -0.25823697 -3.0047004 1.683828 -4.4025636 -3.6496558 -3.8824277
-0.44074416 -3.4598367 0.1088792 0.5071232 0.83691806 0.2475854 0.6119746 1.7859564
2.7986362 1.3695867 0.35693032 -2.8324568 4.219323 -4.6538076 -4.8195825 -1.8021152
0.8116801 -1.1496375 -1.174663 2.7967284 -1.229038 2.2840078 1.0686587 5.7801704
2.0532968 1.1807624 -6.7168646 4.618488 -1.8442044 -3.970921 0.7153119 -2.556282
-0.5096141 1.0653845 -2.5361814 -1.4614455 -0.8010829 -1.7988966 -1.0610138 4.95876
-1.6349945 -0.61909246 -2.8540552 0.54572976 -4.9566 2.6126087 3.6225176 -2.4283316
0.82221735 -7.6164045 -0.8485106 0.29120842 -1.1109215 -0.9294636 3.117081 -1.2794192
1.2587242 1.7256666 1.3233927 -2.2753284 1.1530132 0.30427116 -2.1339264 -2.1340616
-0.40044948 -5.699484 1.076069 0.3120403 0.8519398 -1.2228351 -1.4079878 -3.3712282
2.6447237 -1.7923262 0.623551 0.713611 0.79103726 2.0372684 0.45270854 1.0367123
-0.92187256 1.5826695 -0.5567659 -2.8627024 0.6199324 1.7348174 1.463325 -0.6233181
-1.9613211 -3.7644372 -0.49083087 4.418167 -2.5160205 5.0999165 2.9473464 2.470826
0.3778183 1.8535869 0.40353063 -0.826477 -0.32427615 -2.1886482 -0.29515648 -0.6910812
-0.24137528 0.27407253 0.38622668 -2.1001635 1.0280595 -0.029182589 -1.810904 1.5941691
1.9656125 -7.7501984 4.1803055 3.288793 4.550604 -1.4141316 3.8833246 -3.842958
-3.695536 -2.2397063 -0.6321941 0.7556448 -3.7301004 -4.4535713 -3.0765452 -4.2456717
2.6031673 2.4705744 -3.6701133 2.2324076 -4.9651976 1.6150458 5.21767 0.16131195
-0.26862964 -0.447608 0.00912217 1.0441359 0.46737123 -0.64655757 0.9908171 -0.68939835
0.758682 1.7418 -0.8319348 -1.8491778 -0.30318892 0.1266229 1.3185599 0.6573626
-1.4233688 -2.354677 -2.185017 0.76500905 0.10361246 0.6294633 -1.6809474 0.5229998
-1.7876642 3.2706344 0.29680425 -0.83192444 0.049606793 0.49552605 0.39556903 -0.30484983
3.3509922 -4.4753246 7.31365 0.15405396 -2.5493855 3.7071648 2.710443 0.5767852
-1.5494341 -1.7149462 1.208993 -0.42379844 2.9152598 -0.17608638 -1.8446363 2.825702
-2.5951731 0.9255754 1.4759182 -0.5820455 -1.605058 8.277476 1.5454289 -2.6526682
2.4515162 -0.8820723 -0.37317 -1.4313833 -2.513119 -2.201092 -1.0052282 2.1411602
5.3311434 -0.83056235 -1.2287451 6.8557057 4.112294 0.31312868 -1.1189061 -0.12183162
-1.1228422 1.6020736 -1.2307053 -5.4966087 3.4551234 2.1024332 4.876196 1.6758139
-0.39833003 -2.0479887 -1.7683126 0.47518137 -2.6529956 1.2306552 1.8197402 0.5660759
-0.2758186 1.9985394 0.59835017 -1.8838323 -1.0210043 2.0783823 -0.6172255 0.19954629
1.1393492 -4.4675355 3.5734553 4.9891233 -4.8179755 2.0414972 3.9679682 0.8406355
-2.1831403 0.54958135 -2.2518692 0.27326524 3.7547493 0.3132168 -0.004909127 1.357659

tabnet.encoder.initial_splitter.specifics.glu_layers.0.bn.bn.weight f4 [32]
00000000: 55f4 5440 4c3b 4d40 2ef6 9b40 3888 8940
00000010: da50 2940 ee1c 8e3e 3fa1 8240 7ed4 8fbf
00000020: 038c 5440 e17f c53c f558 0abd fc20 2540
00000030: f8ed 6a40 ac3d 9740 4593 b63d cb96 1440
00000040: 9370 16c0 9220 9940 cc5c 0341 1cf4 3e41
00000050: fde4 7c3d 9e38 efbd f5a0 3040 e1bd c840
00000060: b7e9 5340 9129 2b3d d960 dcbc 952a 0241
00000070: 77b4 8040 812a 9840 d29e f43d 41ad 9340
3.3274128 3.2067442 4.873801 4.2978783 2.6455598 0.27756447 4.0821834 -1.1236722
3.3210456 0.024108829 -0.033776242 2.5801382 3.6707745 4.7262783 0.08914808 2.3217037
-2.350621 4.785226 8.2101555 11.934597 0.061741818 -0.11680721 2.759824 6.2731786
3.3111398 0.041787688 -0.02690165 8.135396 4.0220294 4.7551885 0.11944355 4.614899

tabnet.encoder.initial_splitter.specifics.glu_layers.0.bn.bn.bias f4 [32]
00000000: ba1f 6340 d08b 9340 381a dc3c 861d bb3f
00000010: 2311 6440 bcfe 96bd 0bc8 87c0 cc9c d940
00000020: feab ccbe e8d3 7b3c 03b1 163e ae74 0bc0
00000030: 9dcb efbe b920 9dbf ea70 da3d b17d 1ec0
00000040: a7e7 83c0 223b a2bf 1a21 98bf a4e9 7ebe
00000050: 98e6 adc0 272e d2c0 ed5c 9ac0 4cd3 8440
00000060: 12f4 f0bf 397b f1c0 314c c3c0 f4a1 20c0
00000070: 204a 4bbf 6556 6bc0 8417 cdc0 ccf5 38c0
3.5488114 4.610817 0.02686797 1.4618385 3.563546 -0.073728055 -4.2431693 6.8003902
-0.3997497 0.015370347 0.14715962 -2.1789966 -0.46835032 -1.2275611 0.10666068 -2.4764216
-4.122028 -1.2674296 -1.1885102 -0.24893814 -5.4343987 -6.568134 -4.8238435 4.150793
-1.8824484 -7.546292 -6.1030507 -2.5098848 -0.7940998 -3.677148 -6.4091206 -2.8900023

tabnet.encoder.initial_splitter.specifics.glu_layers.0.bn.bn.running_mean f4 [32]
00000000: add7 9ec0 0430 b7c0 5b7f c4c1 e9c6 b5bf
00000010: 2e02 a440 94c0 cb40 155e 6e40 4314 3d40
00000020: 9441 9bbf 295a dbbf 872d 3040 f701 7841
00000030: 55a0 5f41 e801 0ec1 4961 2bbe 77ae da3f
00000040: 1acc c1c0 f1ff a540 a70a 9240 d039 ad3e
00000050: 5e19 a740 9927 52c0 c2cf 87c0 992e 9cc0
00000060: aea0 30c1 8b3d 623f a2f8 8a3e ec26 0a41
00000070: f9d0 a7c0 cd6a aec0 505a 90c0 347a 1f41
-4.9638276 -5.7246113 -24.562185 -1.4201328 5.125266 6.367258 3.7244923 2.9543617
-1.2129388 -1.713689 2.7527788 15.50048 13.976644 -8.875465 -0.1673633 1.7084492
-6.0561647 5.187493 4.5638003 0.3383317 5.2218466 -3.2836668 -4.244111 -4.880688
-11.039228 0.8837516 0.27142817 8.634502 -5.2442594 -5.450537 -4.5110245 9.967335

tabnet.encoder.initial_splitter.specifics.glu_layers.0.bn.bn.running_var f4 [32]
00000000: d871 cd43 64cf 9343 b2df 2544 ec86 b043
00000010: 0dcc ca43 47de 0143 5556 9343 2ed9 2844
00000020: 7f35 8f43 6e83 4942 2c9e 3343 ebf9 1444
00000030: 58c7 9743 6abb d043 8777 3c43 84b2 a343
00000040: 41b8 0044 1341 9b43 2ccd 4a44 8967 bf43
00000050: b8de 5a43 344a 9a42 9cf5 2144 d86e 0244
00000060: 75bc a543 ae24 9042 62fa 5d43 d237 9d43
00000070: b242 7243 7dd3 f943 4c78 5e42 6d1b 9443
410.8894 295.62024 663.49524 353.05408 405.59415 129.86827 294.67447 675.39343
286.41794 50.37835 179.61786 595.90497 303.55737 417.46417 188.4669 327.39465
514.87897 310.5084 811.2058 382.80887 218.87 77.14493 647.83765 521.73193
331.47232 72.07164 221.97806 314.4361 242.26053 499.65225 55.617477 296.21426

tabnet.encoder.initial_splitter.specifics.glu_layers.1.fc.weight f4 [32, 16]
00000000: ecb0 bfbf f6ae 61bd 7f49 0fbe c339 c93e
00000010: 4646 8fbf 7c25 873d ebd6 00bf 15ea a2be
00000020: 4cff 89bf e610 babf 091c 59be db76 e9be
00000030: 8c9a e33e 2357 f9be 6cbb 4fbf 8245 f83e
00000040: eefa a9bc f991 9bbf 9313 55be 032d 8b3f
00000050: a588 9e3f 4d43 09bf 56e4 87be 289c 57bf
00000060: 7fc7 cb3e d0e3 a5bf daa5 1f3f 913b 74bf
00000070: 0c21 c93e 76e9 1a3f 96dd 12be e73f 85be
00000080: a18b ecbe ed82 21bf ebe8 21be dda8 9e3e
00000090: 816c 77bf bbba 91bf 7869 eb3e 64b1 50be
000000a0: b6fc bd3f b2bf 12be b803 92be 6a02 a63f
000000b0: 9eca 963e 8ae3 2f3f 1ae3 04be 1ae9 de3e
000000c0: d0ab 0240 9c65 d6be 2251 0a3f aeab 9fbe
000000d0: 5a21 a9bf 25db d13e 7518 65bf be35 1c3f
000000e0: fd6c b7bc 3984 4bbe ceb1 723e bcb7 3fbe
000000f0: 3ddf 07bf 0791 2d3d 5335 27bf 8b7a b5bd
00000100: fce4 cabe ab6c 503f 7b54 2b3e 744a 7f3f
00000110: 0a0b 0d3f 91eb 0b40 81a3 ccbf 6b33 1fbf
00000120: e887 6f3f 10e0 213e 66c3 303f 4336 b2bd
00000130: adde 143e 06fb 9f3e 6b93 bc3e dcaa 77bf
00000140: 282a dc3c 98ee 25be 5116 27be 71a9 b2be
00000150: 5455 8fbf 7409 8ebd 5d0a 3bbe 4c97 40bd
00000160: 5597 25bd cab5 ce3d 7eda 513f c3f9 07bf
00000170: 8b8b 4b3f a6b3 81bf d84e 3fbe e343 613e
00000180: 9a50 6dbe a9a4 92bf f32e 44be 8402 443f
00000190: 76cc 66bf 1ba9 9bbc b5cb 043f 0c36 92be
000001a0: 37da 66be 91da ccbe 07c6 dcbe cb4b 373d
000001b0: b466 29be 0cbc f7be 6fda 8c3f 61e3 8fbe
000001c0: 732a 1b3f a496 823f 798b 2cbe 7bc8 163f
000001d0: 0ad7 a4be 3cdb 04bf 8746 80bf d23c 9b3d
000001e0: 39fe 12bf dbc3 9ebf b001 30bf 251e 18bf
000001f0: 15ad f43e 12fa e6be 4c6d 25be 4622 e23d
00000200: a133 00c0 2c7b b7bf eeb1 c340 3634 3e3f
00000210: 8e7b 0ac0 259f 81c0 ff53 2e40 c89e 3040
00000220: 64a1 4a3f 4c41 c0bd 5300 e6bf 940c cd3f
00000230: 3a5b f33e ce2d b3bf f069 5dbf 6960 0941
00000240: c615 ee3f 318d cb3f b6dc 98bf cfbb c5be
00000250: d1b1 0b40 ee71 b03e 8701 0fc0 954a 88bf
00000260: 5a3e 96bf f05e cebf 0a03 a6be b712 6b3f
00000270: ea9a f43e 40cc 3ec0 ae86 11c0 0813 983a
00000280: 0d9d 13c1 6780 16c0 6f0f 213f 8412 e13e
00000290: fd67 31bf 525e 1440 2c0a 4540 8148 0940
000002a0: a69e 15bf a367 d03f b7c1 1ac0 a78b 193f
000002b0: 544f f0bb aa27 fb3f 82d9 ce3f 6c1f 923f
000002c0: 0f52 b5bf 7efd 813e 2f15 ce3f cc73 1fbd
000002d0: d950 93bd 0ba9 9dbf e693 c13e e832 5cbe
000002e0: 8ae6 ae3f 41b6 cd3f 047d 1b3f 636a 0bc0
000002f0: 57f2 03bf 8c78 793f 35e7 1540 5ef4 cb3f
00000300: 0c6a f03f 0ab6 4040 3af7 b43e a897 3a3e
00000310: 8d88 5140 4da2 23bf 544e 31c0 bdd2 2fbf
00000320: b908 383f fa95 703f 0149 b13e 3fdb c4be
00000330: 4abf ecc0 c311 72bf 65e2 01c0 9c92 42c0
00000340: 25ca 64c0 7eee 67c0 2db2 3340 ba32 5340
00000350: cc36 92c0 df2e 203f db23 aa40 88f8 9f40
00000360: b940 763f 71fd 0d40 9846 01c0 c822 8b3f
00000370: f333 c03f 5e16 c8bf 6487 b0bf ea70 6d3f
00000380: 8455 8a3f c8c0 3c40 630a a93f fafb 3ec0
00000390: 308b 8240 5d40 11c0 535e debf a1a2 e13e
000003a0: 251b 58bf e5b1 57bf acdf 12be fcc8 1ec0
000003b0: d07f 4abf 2128 dfbf d3da 19c0 82de 4540
000003c0: 23f7 20c0 ca8c 22bd ece0 87c0 3498 693f
000003d0: 387e 2240 d305 1640 a73f eebf 7d5c 3d3f
000003e0: 53a3 a5be 2cb1 2f40 55d1 c4bf b054 1cc0
000003f0: b9c8 9cbf 2dd4 883f 7f97 a840 e9b5 fdc0
-1.4975867 -0.055098496 -0.1399288 0.3930188 -1.1193321 0.065989465 -0.5032794 -0.31819215
-1.0781035 -1.4536407 -0.21202101 -0.45598492 0.44453847 -0.48699293 -0.8114536 0.4849053
-0.020749535 -1.2153922 -0.20808248 1.0873111 1.2385451 -0.5361832 -0.26541394 -0.8422265
0.3980064 -1.2960148 0.62362444 -0.9540339 0.39283025 0.60512483 -0.14342341 -0.26025316
-0.46200278 -0.630904 -0.15811507 0.30988207 -0.9664994 -1.1385111 0.45978904 -0.20380169
1.4842746 -0.14330938 -0.28518462 1.2969487 0.2945146 0.6870657 -0.12977257 0.43537217
2.0417366 -0.41874397 0.5403005 -0.3118567 -1.3213303 0.40987507 -0.89490443 0.61019504
-0.022390837 -0.19874658 0.2370064 -0.18722433 -0.5307501 0.042374637 -0.6531574 -0.08861264
-0.39627826 0.81415814 0.16731445 0.9972298 0.5509497 2.1862528 -1.5987397 -0.6218783
0.9356675 0.1580813 0.69048154 -0.08701756 0.14538069 0.31246203 0.3683122 -0.96745086
0.02687557 -0.16204298 -0.16317107 -0.348949 -1.1197915 -0.06935397 -0.18265672 -0.047019288
-0.040427525 0.10093267 0.8197402 -0.5311548 0.795098 -1.0132949 -0.1868242 0.21998553
-0.23175278 -1.14565 -0.19158535 0.7656634 -0.9015573 -0.019001534 0.5187333 -0.2855686
-0.2254418 -0.40010503 -0.43119833 0.044750016 -0.16543084 -0.48385656 1.1004161 -0.28103164
0.6061165 1.0202222 -0.1685008 0.5889966 -0.32195312 -0.51897025 -1.0021523 0.0757996
-0.57419163 -1.240352 -0.68752575 -0.59420997 0.477883 -0.45112664 -0.16154975 0.110416934
-2.0031512 -1.4334464 6.11547 0.7429842 -2.1637912 -4.050677 2.7238767 2.7596912
0.7915251 -0.093874544 -1.7968849 1.6019464 0.47530538 -1.3998353 -0.8648977 8.586038
1.8600395 1.5902463 -1.1942356 -0.3861985 2.182728 0.3446192 -2.2344682 -1.0647761
-1.1737778 -1.6122723 -0.32424194 0.9182543 0.4777444 -2.9812164 -2.2738452 0.0011602351
-9.225842 -2.351587 0.62914175 0.4395944 -0.692993 2.3182569 3.0787458 2.1450503
-0.58445203 1.6281627 -2.4180734 0.5997872 -0.0073336754 1.962148 1.6160128 1.1415839
-1.4165667 0.25388712 1.6100215 -0.038928792 -0.07193155 -1.2317213 0.3780815 -0.21503794
1.3664105 1.6071244 0.60737634 -2.1783683 -0.51541656 0.97449565 2.3422368 1.593395
1.8782363 3.0111108 0.3534487 0.18221915 3.2739594 -0.63919526 -2.7704058 -0.68680936
0.7188831 0.93978846 0.3462601 -0.38448521 -7.3983507 -0.9455835 -2.029443 -3.0401983
-3.574838 -3.6239314 2.80775 3.299971 -4.569189 0.6257152 5.316877 4.9990883
0.9619251 2.2185938 -2.0199337 1.0869989 1.5015854 -1.5631826 -1.3791318 0.9275042
1.0807347 2.9492664 1.3206295 -2.9841294 4.0794907 -2.2695534 -1.7372535 0.44069389
-0.8441642 -0.8425582 -0.14343137 -2.481017 -0.79101276 -1.7434121 -2.403981 3.0917058
-2.515084 -0.03968505 -4.2462063 0.9124787 2.5389538 2.3441055 -1.8613175 0.7396925
-0.3235117 2.7451887 -1.5376383 -2.442669 -1.2248756 1.0689751 5.268493 -7.928456

tabnet.encoder.initial_splitter.specifics.glu_layers.1.bn.bn.weight f4 [32]
00000000: 0000 803f 0000 803f 0000 803f 0000 803f
00000010: 0000 803f 0000 803f 0000 803f 0000 803f
00000020: 5f15 5040 a3ad 52bd b401 b040 1154 6a3d
00000030: 657e 2940 aa93 9d40 c596 7d3f 16f6 da3f
00000040: 0000 803f 0000 803f 0000 803f 0000 803f
00000050: 0000 803f 0000 803f 0000 803f 0000 803f
00000060: 588f 6b40 663b e83c 586a 0a40 ac50 833b
00000070: c62a f53f 974d fc3f 0a09 7cbd 48e3 26c0
1.0 1.0 1.0 1.0 1.0 1.0 1.0 1.0
3.2513044 -0.051435124 5.500208 0.05720908 2.6483395 4.9242754 0.9905818 1.710635
1.0 1.0 1.0 1.0 1.0 1.0 1.0 1.0
3.680624 0.028348636 2.1627407 0.0040074196 1.9153678 1.9711179 -0.061532058 -2.6076221

tabnet.encoder.initial_splitter.specifics.glu_layers.1.bn.bn.bias f4 [32]
00000000: 0000 0000 0000 0000 0000 0000 0000 0000
00000010: 0000 0000 0000 0000 0000 0000 0000 0000
00000020: f5d1 f2bf 5877 7a3e d7a7 43c0 884f 26bc
00000030: be1b 403f bf46 0bc0 93c5 e73e 33b7 20bc
00000040: 0000 0000 0000 0000 0000 0000 0000 0000
00000050: 0000 0000 0000 0000 0000 0000 0000 0000
00000060: 19c7 a2be 6586 e2c0 c71d 98c0 bb94 03c1
00000070: a7d3 14c0 7d83 6fc0 700b c3c0 bcba a9bf
0.0 0.0 0.0 0.0 0.0 0.0 0.0 0.0
-1.8970324 0.24459589 -3.0571191 -0.010150798 0.7504233 -2.176193 0.45267925 -0.009809303
0.0 0.0 0.0 0.0 0.0 0.0 0.0 0.0
-0.31792524 -7.0789056 -4.753635 -8.223811 -2.3254182 -3.7424004 -6.095146 -1.3260112

tabnet.encoder.initial_splitter.specifics.glu_layers.1.bn.bn.running_mean f4 [32]
00000000: 643d 96bf afc8 9fc0 aacb 85c0 d5fb 5640
00000010: bf63 1bbe e62b 7d3c d66f 6bbf 73f7 2bbf
00000020: b169 2240 9bb0 aec0 495a 4841 46b6 703e
00000030: 5992 963e a516 7e41 abd0 9a3f 451b 3f41
00000040: 9855 a63f c23c 27c0 5f52 d9bf 46b2 b3be
00000050: 6ded c640 686c 8840 9650 ff40 a978 73c0
00000060: 111e 1541 5e49 3840 3a59 8940 94ee 50bd
00000070: bb33 c340 0dc2 e940 41a4 5641 051d 8141
-1.1737485 -4.9932475 -4.1811113 3.3591206 -0.15174769 0.015452361 -0.91967523 -0.6717445
2.537701 -5.4590583 12.522042 0.23507032 0.2940853 15.880528 1.209493 11.944158
1.2994871 -2.6130834 -1.6978263 -0.3509695 6.2164826 4.263233 7.978587 -3.8042395
9.31984 2.879478 4.292142 -0.051008776 6.1000648 7.304938 13.415101 16.13917

tabnet.encoder.initial_splitter.specifics.glu_layers.1.bn.bn.running_var f4 [32]
00000000: 61d6 9641 4967 6741 6f86 cd41 d8d2 8c41
00000010: 1d47 c141 6b57 ff40 9cfb 3c41 dbc0 2142
00000020: 3d1e 1244 f9db 7d43 802b 0a44 6667 c642
00000030: 2fa2 d443 27b4 0744 b000 5543 8080 d543
00000040: a9e3 fe40 4ad9 3141 4f42 c840 67b4 8341
00000050: 2985 e241 ddde 4e42 ff87 f241 4acf 1142
00000060: ac71 1544 ef3d 8a43 f0dd 1e44 34de 2a42
00000070: 178f 8743 3906 ad43 75d1 5743 c708 8143
18.854677 14.462716 25.690641 17.602951 24.159723 7.979421 11.811428 40.438335
584.4725 253.85927 552.6797 99.20195 425.26706 542.8149 213.00269 427.0039
7.9652905 11.115549 6.2580943 16.463087 28.31502 51.71764 30.316404 36.45243
597.7761 276.48386 635.4678 42.716995 271.1179 346.0486 215.81819 258.06857
